…
    learning_rate: 0.000466530301221283
    batch_size: 32

Optimisation completed in 23.46 hours
  Best NiOA val loss : 0.00000702
  Best params : {'lstm_layers': 3, 'units': 64, 'dropout': 0.3061753482887407, 'optimizer': 'adamw', 'learning_rate': 0.000466530301221283, 'batch_size': 32}
[3f] Final training  (batch=16  epochs=40  patience=7  loss=huber)
Model: "NiOA_DRNN"
_________________________________________________________________
 Layer (type)                Output Shape              Param #   
=================================================================
 bidirectional (Bidirectiona  (None, 120, 128)         41984     
 l)                                                              
                                                                 
 lstm_1 (LSTM)               (None, 120, 64)           49408     
                                                                 
 dropout (Dropout)           (None, 120, 64)           0         
                                                                 
 lstm_2 (LSTM)               (None, 120, 64)           33024     
                                                                 
 dropout_1 (Dropout)         (None, 120, 64)           0         
                                                                 
 batch_normalization (BatchN  (None, 120, 64)          256       
 ormalization)                                                   
                                                                 
 global_max_pooling1d (Globa  (None, 64)               0         
 lMaxPooling1D)                                                  
                                                                 
 dense (Dense)               (None, 64)                4160      
                                                                 
 dropout_2 (Dropout)         (None, 64)                0         
                                                                 
 dense_1 (Dense)             (None, 25)                1625      
                                                                 
 dense_2 (Dense)             (None, 1)                 26        
                                                                 
=================================================================
Total params: 130,483
Trainable params: 130,355
Non-trainable params: 128
_________________________________________________________________
Epoch 1/40
117163/117163 [==============================] - 8478s 72ms/step - loss: 1.0369e-04 - mae: 0.0036 - val_loss: 6.6753e-06 - val_mae: 0.0024
…
To enable them in other operations, rebuild TensorFlow with the appropriate compiler flags.
2026-04-11 12:54:06.073506: I tensorflow/core/common_runtime/gpu/gpu_device.cc:1616] Created device /job:localhost/replica:0/task:0/device:GPU:0 with 9591 MB memory:  -> device: 0, name: NVIDIA GeForce RTX 3060, pci bus id: 0000:01:00.0, compute capability: 8.6
Model: "NiOA_DRNN"
_________________________________________________________________
 Layer (type)                Output Shape              Param #   
=================================================================
 bidirectional (Bidirectiona  (None, 120, 128)         41984     
 l)

 lstm_1 (LSTM)               (None, 120, 64)           49408     

 dropout (Dropout)           (None, 120, 64)           0

 batch_normalization (BatchN  (None, 120, 64)          256       
 ormalization)

 global_max_pooling1d (Globa  (None, 64)               0
 lMaxPooling1D)

 dense (Dense)               (None, 64)                4160

 dropout_1 (Dropout)         (None, 64)                0

 dense_1 (Dense)             (None, 25)                1625

 dense_2 (Dense)             (None, 1)                 26

=================================================================
Total params: 97,459
Trainable params: 97,331
Non-trainable params: 128
_________________________________________________________________

Predicting on FULL test set (original, unfiltered) ...
2026-04-11 12:54:07.672984: I tensorflow/stream_executor/cuda/cuda_dnn.cc:384] Loaded cuDNN version 8100
2026-04-11 12:54:08.464214: I tensorflow/stream_executor/cuda/cuda_blas.cc:1614] TensorFloat-32 will be used for the matrix multiplication. This will only be logged once.
…
To enable them in other operations, rebuild TensorFlow with the appropriate compiler flags.
2026-04-11 13:31:02.162965: I tensorflow/core/common_runtime/gpu/gpu_device.cc:1616] Created device /job:localhost/replica:0/task:0/device:GPU:0 with 9591 MB memory:  -> device: 0, name: NVIDIA GeForce RTX 3060, pci bus id: 0000:01:00.0, compute capability: 8.6
Model: "NiOA_DRNN"
_________________________________________________________________
 Layer (type)                Output Shape              Param #
=================================================================
 bidirectional (Bidirectiona  (None, 120, 256)         149504
 l)

 lstm_1 (LSTM)               (None, 120, 128)          197120

 dropout (Dropout)           (None, 120, 128)          0

 batch_normalization (BatchN  (None, 120, 128)         512
 ormalization)

 global_max_pooling1d (Globa  (None, 128)              0
 lMaxPooling1D)

 dense (Dense)               (None, 64)                8256

 dropout_1 (Dropout)         (None, 64)                0

 dense_1 (Dense)             (None, 25)                1625

 dense_2 (Dense)             (None, 1)                 26

=================================================================
Total params: 357,043
Trainable params: 356,787
Non-trainable params: 256
_________________________________________________________________

Predicting on FULL test set (original, unfiltered) ...
2026-04-11 13:31:04.004572: I tensorflow/stream_executor/cuda/cuda_dnn.cc:384] Loaded cuDNN version 8100
2026-04-11 13:31:04.695114: I tensorflow/stream_executor/cuda/cuda_blas.cc:1614] TensorFloat-32 will be used for the matrix multiplication. This will only be logged once.
…
